trained_models/ Model_1_Vital_Signs/model_vital_20250327_032916.pth (torch, 74576 bytes, 5 tensors)

fc1.weight f4 [128, 9]
0	0xbe1ba7c2	-0.15200713
1	0x3dc63cda	0.09679575
2	0xbce7f6f3	-0.028315997
3	0x3cd13cdb	0.025541713
4	0x3d1f2f7a	0.038863637
5	0x3dc4f4fc	0.096170396
6	0xbdbbd767	-0.09171944
7	0x3de0f1c4	0.10983613
8	0xbbdccb70	-0.006738119
9	0xbe397c3a	-0.18113795
10	0x3c401275	0.0117231505
11	0xbb2bf882	-0.0026240651
12	0x3b240169	0.0025025255
13	0x3c637e0f	0.013885035
14	0x3c08819f	0.008331685
15	0x3b9e68b0	0.004834257
16	0x3f2c6518	0.67341757
17	0xbf2b565b	-0.66928643
18	0xbd2fd8a3	-0.04293121
19	0x3d1421ed	0.036165167
20	0x3cc15ba6	0.023603272
21	0x3d030859	0.031990383
22	0x3cb343d9	0.021882938
23	0xbbde9a78	-0.0067933165
24	0x3d35d525	0.044392724
25	0xbf1535de	-0.5828532
26	0x3efcb5c3	0.49357423
27	0x3f50cc82	0.81562054
28	0xbb1194d8	-0.0022213962
29	0x3be7cc48	0.007073913
30	0xba3fa674	-0.0007310875
31	0xbbf02156	-0.0073281927
32	0x3c647a8d	0.013945234
33	0xbb97d8c5	-0.0046339952
34	0x3e0e8035	0.13916095
35	0xbd84a273	-0.06476297
36	0x3d1d53bc	0.038409933
37	0xbcd24e30	-0.025672048
38	0xbc0bc272	-0.008530246
39	0x3a656594	0.0008750793
40	0x3c622b72	0.0138043035
41	0xbc5c5350	-0.013447598
42	0x3c3fa83c	0.011697825
43	0xbc0e82d5	-0.008698185
44	0x3d223bba	0.03960774
45	0x3f089c8a	0.5336386
46	0x3c401580	0.011723876
47	0x3c39dfad	0.011344832
48	0x3b8364fc	0.004009841
49	0x3c9ed60a	0.019389171
50	0xbcc4482b	-0.023960194
51	0x3c998f81	0.018745186
52	0x3d29c24d	0.041445065
53	0xbcb135aa	-0.021632034
54	0xbdacd36c	-0.08438763
55	0xbc16003c	-0.009155329
56	0xbb4ac586	-0.0030940487
57	0x3b1722c4	0.0023061493
58	0x3c8404fa	0.016115654
59	0x3c080869	0.008302786
60	0xbbd73b13	-0.0065683215
61	0x3e04cc38	0.12968528
62	0xbd9b52c3	-0.07584145
63	0x3d475790	0.04866749
64	0x3b216f03	0.0024632819
65	0xbbf50975	-0.007477934
66	0x3ac997b2	0.0015380292
67	0x3c31ddcc	0.010856103
68	0x3cf7a9e5	0.03023238
69	0x3c81cbdd	0.01584428
70	0x3c8348a0	0.016025841
71	0xbbf471b3	-0.007459843
72	0xbd164bc4	-0.03669335
73	0xbd12d372	-0.03584618
74	0x3d0e3f6d	0.034728456
75	0x3c0ecc72	0.008715736
76	0xbca56ad2	-0.020192537
77	0x3b2e3ca9	0.002658645
78	0x3a74d9ee	0.00093403354
79	0x3f0207b8	0.5079303
80	0xbef4eb5a	-0.4783581
81	0x3d9b22c2	0.07574989
82	0x3cacf4b2	0.021112774
83	0xbd2e63ce	-0.04257565
84	0x3c47e753	0.012201148
85	0x3c80c121	0.015717091
86	0xbcfb2a96	-0.030659955
87	0xbb7ea01b	-0.0038852755
88	0xbf01da59	-0.507238
89	0xbf014851	-0.5050097
90	0x3c8f8046	0.01751722
91	0xbd6d0eb9	-0.05787537
92	0x3b27b40e	0.0025589499
93	0xbd78cf7a	-0.06074474
94	0xbbf8714c	-0.0075818654
95	0x3c58058c	0.013184916
96	0xbd148b60	-0.03626573
97	0x3d0db97e	0.034600727
98	0xbc638c61	-0.013888449
99	0xbe1f315d	-0.15546174
100	0xbaa8a4fb	-0.0012866551
101	0x3bd33728	0.006445784
102	0xbc5fb67e	-0.013654349
103	0xbc42b4c3	-0.011883917
104	0x3b95e950	0.004574932
105	0xbbc38844	-0.005967172
106	0xbf2ea343	-0.6821787
107	0x3ef2f77b	0.47454438
108	0x3c176d0a	0.0092423055
109	0x3b6f5410	0.003651861
110	0xbbbcc410	-0.005760677
111	0x3c286471	0.010277853
112	0x3c65ace6	0.014018273
113	0x3b39e60d	0.002836588
114	0x3c31b9af	0.010847493
115	0x3c0b237c	0.008492347
116	0x3d22293e	0.039590113
117	0x3c324301	0.010880233
118	0xbd1af247	-0.03782871
119	0x3d6c2b9b	0.057658773
120	0x3d5c627b	0.053804856
121	0xbb661d00	-0.00351125
122	0xbcbc0e27	-0.022955967
123	0x3cae30b2	0.021263454
124	0x3ce363df	0.027757583
125	0x3c27c242	0.010239186
126	0x3f3d8554	0.7403157
127	0x3c749d50	0.014930084
128	0xbb497c3d	-0.0030744218
129	0xbb4d8be5	-0.0031363901
130	0xbb64f7b1	-0.0034937675
131	0x3a94e561	0.0011359864
132	0xbc0147d8	-0.007890664
133	0x3cd1b1e6	0.025597524
134	0xbc007f95	-0.007842918
135	0x3c965460	0.01835078
136	0x3aea4bf4	0.0017875419
137	0x3b409619	0.002938634
138	0x3b9e504d	0.00483135
139	0xbb8c4b12	-0.00428141
140	0x3b818cd9	0.003953558
141	0xb81ab571	-3.688544e-05
142	0x3c5c7c98	0.01345744
143	0xbc881044	-0.016609319
144	0xbc0cb743	-0.008588615
145	0x3daddccb	0.084893785
146	0xbb1baadd	-0.0023752965
147	0x3d7e2e46	0.06205585
148	0xbd3881c1	-0.045045618
149	0xbd1134c0	-0.035450697
150	0x3d76df1f	0.06027138
151	0xbcab027e	-0.020875212
152	0x3db8c39b	0.09021684
153	0xbdbe4806	-0.09291081
154	0xbd18258d	-0.037145186
155	0xbcfa82f1	-0.030580016
156	0x3b02994d	0.00199278
157	0xbdbd62d2	-0.09247364
158	0xbded634b	-0.11591204
159	0xbd5efa05	-0.054437656
160	0xbdf62dcd	-0.120204546
161	0x3e91bbb1	0.2846351
162	0xbb866f3b	-0.004102615
163	0xbc050f14	-0.008121271
164	0xbd004034	-0.03131123
165	0xbbc1993d	-0.00590816
166	0x3a7ebf76	0.0009717861
167	0xbba82a9c	-0.0051320326
168	0xbc09938a	-0.008396992
169	0x3c4d2e6b	0.012523274
170	0x3ace7e95	0.0015754277
171	0xbc46814a	-0.012115786
172	0xbcbefdcf	-0.023314385
173	0xbd9d1b9e	-0.07671283
174	0x3bfe4fa0	0.007760957
175	0x3e03fb14	0.12888747
176	0x3ddc9e04	0.107723266
177	0xbd9f325c	-0.07773277
178	0x3bf98bb8	0.0076155327
179	0x3e1d1834	0.15341264
180	0x3ea61865	0.32440487
181	0x3b9e35ed	0.004828206
182	0x3da38315	0.07983986
183	0xbc77ef8b	-0.015132795
184	0x3d8fe0db	0.0702531
185	0xbcab6c3a	-0.02092563
186	0x3cb8ee0b	0.022574445
187	0xbeee7f8e	-0.46581692
188	0x3ecf8543	0.40531358
189	0xbb8095a5	-0.003924089
190	0x3c341af5	0.010992755
191	0x374cc5ca	1.2205399e-05
192	0xba96ea51	-0.0011513924
193	0xba514c5a	-0.00079840946
194	0xbae2e0ca	-0.0017309424
195	0x3aa9ca94	0.001295405
196	0x3c12d194	0.0089611
197	0xbb94c713	-0.004540333
198	0x3f4a9d08	0.7914586
199	0xba7e5f33	-0.0009703517
200	0xbbd0ef6a	-0.0063761966
201	0x3c519334	0.012791444
202	0xbb94fe47	-0.004546914
203	0xbc382771	-0.011239872
204	0xbb86aa86	-0.0041096834
205	0x3d4304a9	0.047611866
206	0x3cc7a077	0.024368508
207	0xbee99179	-0.456188
208	0x3ba8e4fc	0.00515425
209	0x3c560ab2	0.013064073
210	0xbd736ad9	-0.05942807
211	0x3d8b3cbd	0.06798694
212	0x3d6ab091	0.057297293
213	0xbcd4bb6a	-0.025968272
214	0xbf33c889	-0.7022787
215	0x3ef0cc53	0.47030887
216	0xbcb9d885	-0.022686252
217	0x3cdf143f	0.027231334
218	0xbd194261	-0.03741682
219	0x3ccaf750	0.02477613
220	0x3b5e713e	0.003394201
221	0x3c30f01b	0.010799433
222	0xbcb91053	-0.022590792
223	0xbe9b2975	-0.30305067
224	0x3e8ba7b0	0.27276373
225	0xbb2517f3	-0.0025191277
226	0x3ba54b8f	0.0050444077
227	0x3ad2db3a	0.0016087063
228	0x3aefe44b	0.001830229
229	0x39eb14e2	0.00044838252
230	0x3bf0d44a	0.0073495256
231	0x3bc6cbf4	0.0060667936
232	0x3ede5e5b	0.43431363
233	0xbede55d4	-0.43424857
234	0x3c315307	0.010823018
235	0x3b9c8299	0.0047763106
236	0x3ab9e391	0.00141822
237	0xbb4a0295	-0.0030824293
238	0x3b34e65b	0.0027603123
239	0xbbaa2b42	-0.005193145
240	0x3c80ac9b	0.015707305
241	0xbb824f02	-0.0039767036
242	0x3c1e4c16	0.009661695
243	0x3cea4579	0.02859758
244	0x3d2b0794	0.041755274
245	0xbbe21234	-0.0068991426
246	0x3c14ecde	0.009089677
247	0xbcc5ea6c	-0.024159633
248	0x3b54c3fa	0.0032465444
249	0x3a9076e2	0.0011021758
250	0xbc267ecc	-0.010162067
251	0x3cc7d8fb	0.024395457
252	0x3c47a84a	0.012186119
253	0x3b74fc8d	0.0037381977
254	0xbc21aaca	-0.009867379
255	0x3c333909	0.010938891

fc1.bias f4 [128]
0	0x3ebfe185	0.37476745
1	0xbf0c6ab3	-0.5485031
2	0xbf0c0e88	-0.5470967
3	0xbf0f48f1	-0.55970675
4	0xbe47ac22	-0.19499257
5	0xbed17235	-0.40907446
6	0xbec6ca16	-0.38826054
7	0xbe2d6cb3	-0.16935997
8	0xbee7099c	-0.4512452
9	0xbe9a0c80	-0.30087662
10	0xbe7d3bd4	-0.24729854
11	0xbf252f17	-0.6452498
12	0xbe2ce1b0	-0.16882968
13	0xbecab0a9	-0.39587906
14	0xbf246651	-0.6421862
15	0xbda0555c	-0.07828781
16	0xbed54909	-0.41657284
17	0x3ea0d417	0.31411812
18	0xbdd7fbf0	-0.105461
19	0x3f0febed	0.5621937
20	0xbe4b7fb9	-0.19872941
21	0xbd237333	-0.039904784
22	0xbf08da08	-0.5345769
23	0xbea11cbc	-0.31467235
24	0xbef15c43	-0.47140703
25	0xbef1ad46	-0.4720251
26	0xbdcd4cf0	-0.1002444
27	0xbe6cedf0	-0.23137641
28	0xbd9407be	-0.07228039
29	0x3f2cd64d	0.675145
30	0x3f12c2e9	0.5732866
31	0xbe204f97	-0.15655361
32	0xbd731fd4	-0.059356526
33	0xbe4402b5	-0.19141658
34	0xbee4f790	-0.44720125
35	0xbe4bc2a0	-0.19898462
36	0xbdf7e342	-0.12103893
37	0x3c3aa4a8	0.011391796
38	0xbf0f7d1d	-0.5605028
39	0xbe5e3ff9	-0.21704091
40	0xbed541fb	-0.41651902
41	0xbdefe255	-0.11713091
42	0xbc1d5e1f	-0.00960496
43	0x3e6148a9	0.22000374
44	0x3f06f50b	0.52717656
45	0xbeb87269	-0.36024788
46	0xbebcb0d5	-0.36853662
47	0x3eb44904	0.35211957
48	0xbf033996	-0.51259744
49	0xbdce1488	-0.1006251
50	0xbee2e71f	-0.44316956
51	0xbe154d70	-0.14580321
52	0xbec26d11	-0.37973836
53	0xbe810713	-0.2520071
54	0xbf040ac0	-0.51578903
55	0xbdb72d8a	-0.08944233
56	0xbf1ac525	-0.6045707
57	0x3f0cd70f	0.55015653
58	0x3f0f0506	0.5586704
59	0xbe84f52b	-0.25968298
60	0xbdbba570	-0.09162414
61	0xbf07750d	-0.5291298
62	0xbdb05c6f	-0.0861138
63	0x3bc6376b	0.006049087
64	0xbec8c16b	-0.39210066
65	0xbef12ce6	-0.47104567
66	0x3f478eee	0.7795247
67	0xbe4408eb	-0.19144027
68	0xbdf6ac31	-0.12044562
69	0xbee3aea2	-0.44469172
70	0xbf0aaa4b	-0.54166096
71	0xbefeb10d	-0.49744454
72	0xbd67b605	-0.05657007
73	0x3eb7be9e	0.35887617
74	0xbeb6cf3c	-0.35704982
75	0xbf185e15	-0.5951856
76	0xbeebe1f9	-0.4607084
77	0x3ea9c06c	0.3315462
78	0xbee27106	-0.44226855
79	0x3f1296e8	0.57261515
80	0xbeba0579	-0.363323
81	0xbe9c1838	-0.30487227
82	0xbe6be19c	-0.23035282
83	0xbeebf7ea	-0.4608758
84	0xbef5969c	-0.47966468
85	0xbeb49409	-0.35269192
86	0x3e050ac4	0.12992388
87	0x3efeb6d8	0.49748874
88	0xbf02ea69	-0.5113893
89	0x3f1aaf7b	0.6042401
90	0xbee243e1	-0.44192412
91	0xbe9b6daa	-0.30357105
92	0xbdcea309	-0.1008969
93	0xbe99113e	-0.29895967
94	0xbda2c950	-0.079485536
95	0xbd878718	-0.06617564
96	0xbde9a855	-0.1140906
97	0xbee8fc41	-0.45504954
98	0x3eed6987	0.46369573
99	0xbe013cfa	-0.12620917
100	0xbee4c11d	-0.44678584
101	0xbe76aba2	-0.2408891
102	0x3d6f5a6f	0.058435854
103	0xbe9711db	-0.2950581
104	0xbe30a8d3	-0.17251901
105	0xbeafa785	-0.34307495
106	0xbd8a457a	-0.06751533
107	0xbea8c151	-0.3295999
108	0xbef3d8fa	-0.47626477
109	0x3def6490	0.11689103
110	0xbe95c5c4	-0.29252446
111	0xbe56cbc2	-0.20976165
112	0xbf20cbfa	-0.62811244
113	0x3f22ab66	0.63542783
114	0xbec0fc11	-0.3769231
115	0xbd8e0028	-0.069336236
116	0xbef69438	-0.48159957
117	0xbee07243	-0.43837175
118	0xbed73750	-0.42034388
119	0xbe616ba9	-0.22013725
120	0x3f191f9d	0.59813863
121	0xbe282b2c	-0.16422719
122	0xbec90653	-0.39262637
123	0xbe9168a9	-0.28400162
124	0xbee2d3b0	-0.4430213
125	0xbee4802d	-0.4462904
126	0xbe9ff04d	-0.31238022
127	0xbedd60ee	-0.43238014

fc2.weight f4 [128, 128]
0	0xbd5e319f	-0.05424654
1	0xbf10f2bb	-0.5662038
2	0xbf08ef9c	-0.53490615
3	0x3f5cfb86	0.86321294
4	0xbc8f0dd6	-0.017462652
5	0x3e88ea06	0.26741046
6	0xbe7921f4	-0.24329358
7	0x3d89f77a	0.067366555
8	0xbf19c694	-0.6006863
9	0xbca049b3	-0.019566393
10	0xbd931b64	-0.07182959
11	0xbf2b5bca	-0.66936934
12	0xbb8d04dc	-0.004303558
13	0xbd5d06f2	-0.0539617
14	0x3fce862d	1.6134697
15	0xbaf30482	-0.0018540772
16	0xbdeaf88a	-0.11473186
17	0xbdc528bd	-0.09626911
18	0x3deed055	0.1166083
19	0xbc0aa1ee	-0.008461459
20	0x3e06e494	0.13173133
21	0x3d81bd1b	0.06334897
22	0x3f2a1a6c	0.66446567
23	0xbf12766e	-0.5721196
24	0xbed90161	-0.42383865
25	0xbdd52d7b	-0.10409065
26	0xbdfe9125	-0.12430028
27	0x3d5c50c0	0.053787947
28	0xbb069946	-0.0020538135
29	0xbf1d79d2	-0.6151401
30	0xbdce5e58	-0.100765884
31	0xbea2079e	-0.31646436
32	0x3dd44412	0.10364546
33	0x3c8b7c34	0.017026998
34	0x3ef8b5c5	0.4857618
35	0xbf0b9b71	-0.5453406
36	0xbcff69d9	-0.031178402
37	0x3e56e868	0.20987093
38	0xbf139625	-0.5765098
39	0xbf0a04b3	-0.5391342
40	0xbeab7d73	-0.33494148
41	0xbe006a77	-0.12540613
42	0x3e4ecde7	0.20195733
43	0xbe67569c	-0.22591633
44	0xbe0e8409	-0.13917555
45	0xbdac6d6c	-0.08419308
46	0xbd777293	-0.060412
47	0xbe88d6fa	-0.26726514
48	0xbe843036	-0.25818032
49	0xbd3234c7	-0.043507364
50	0x3ea649a8	0.3247807
51	0x3daecdfa	0.08535381
52	0x3df8f143	0.12155392
53	0xbf372b7d	-0.7155073
54	0xbeabc9d4	-0.3355242
55	0xbda2bbd8	-0.079459846
56	0x3f9bc1aa	1.2168477
57	0xbed41572	-0.4142261
58	0xbd7ca252	-0.06167824
59	0x3d79c95d	0.06098305
60	0xbe312679	-0.17299832
61	0x3f2e9c0c	0.6820686
62	0x3c076d90	0.008265868
63	0xbf46274e	-0.77403724
64	0xbd8097d9	-0.06278963
65	0x3eb57ab4	0.35445178
66	0xbf1100c6	-0.56641805
67	0x3ebb148d	0.36539117
68	0xbde78f5a	-0.11306639
69	0xbe9805c4	-0.296919
70	0x3f54841f	0.830141
71	0xbea1b94d	-0.31586686
72	0x3dfeb3ce	0.12436639
73	0x3c6db0dd	0.0145074995
74	0x3ea7eb1f	0.3279657
75	0xbf18a04f	-0.5961961
76	0xbf46ed18	-0.77705526
77	0xbd4e7d5e	-0.05041253
78	0xbe6698ff	-0.22519301
79	0xbe945779	-0.28972986
80	0xbe99d969	-0.30048683
81	0xbe836785	-0.25664917
82	0x3df5697f	0.119830124
83	0x3cf94eb7	0.030433042
84	0x3ed99396	0.42495412
85	0xbd016aa8	-0.031595856
86	0xbd81afef	-0.06332385
87	0xbe8e6156	-0.27808636
88	0x3f2e7a1a	0.6815506
89	0xbe806292	-0.25075203
90	0xbeac53a8	-0.33657575
91	0x3e0c1e0b	0.13683335
92	0x3d31130d	0.04323106
93	0xbe0d0d98	-0.13774717
94	0xbd61a403	-0.055088054
95	0x3d6c9b8b	0.057765525
96	0x3d97cff7	0.07412713
97	0x3e373dc5	0.17894657
98	0xbeb66a8c	-0.35628164
99	0xbd39bf63	-0.045348536
100	0x3e820ca6	0.25400275
101	0xbe0e091c	-0.13870662
102	0x3cdc84cb	0.02691879
103	0xbe338ec3	-0.17534928
104	0x3c9c0908	0.019047275
105	0xbf268d3e	-0.6505927
106	0x3df09b79	0.11748404
107	0x3d6d802e	0.05798357
108	0xbf0435de	-0.51644695
109	0x3bd2bad6	0.006430964
110	0x3d689877	0.056786027
111	0xbe171126	-0.14752635
112	0xbf2607ab	-0.6485545
113	0xbf1dc8cf	-0.61634535
114	0xbe7555d1	-0.23958518
115	0x3da18933	0.07887497
116	0x3f40b8a5	0.75281745
117	0xbec31e8e	-0.3810925
118	0xbdc9cf58	-0.09854001
119	0x3d7441dd	0.059633125
120	0xbf325616	-0.69662607
121	0x3e12e702	0.14345935
122	0x3ee4009a	0.4453171
123	0x3e291725	0.16512735
124	0xbd1b7d2c	-0.03796117
125	0x3e8bbf8e	0.27294582
126	0x3e235294	0.1594947
127	0x3f5bf90d	0.85926896
128	0xbdcfff99	-0.10156173
129	0x3f33dcaa	0.7025858
130	0xbe027649	-0.12740435
131	0x3e59efd2	0.2128289
132	0xbd2261d9	-0.039644096
133	0xbcebb6c2	-0.02877367
134	0xbd4c1139	-0.049821112
135	0xbcfc6876	-0.03081153
136	0x3e860ab1	0.26180032
137	0xbefe1ebe	-0.4963283
138	0x3de14fbe	0.11001538
139	0xbe70ed33	-0.23527984
140	0x3df4349a	0.119240955
141	0xbd42b342	-0.047534235
142	0x3e857f9e	0.26073927
143	0xbd276d45	-0.040875692
144	0xbda6d167	-0.08145409
145	0xbc137256	-0.008999428
146	0x3e08a0bb	0.13342564
147	0xbdc72e02	-0.09725572
148	0x3f00852c	0.50203204
149	0xbe078b7e	-0.13236806
150	0x3dfcb143	0.123384975
151	0xbf41b436	-0.75665605
152	0xbec0fe65	-0.37694088
153	0x3e85c6f8	0.26128364
154	0x3daeab1a	0.08528729
155	0xbd90a346	-0.07062392
156	0x3d3fb1bd	0.046800364
157	0xbdb23deb	-0.08703216
158	0x3dea300d	0.11434946
159	0xbf157e1e	-0.58395565
160	0x3baab786	0.005209866
161	0xbe0d7bd8	-0.13816774
162	0x3e13c94e	0.1443226
163	0x3e602b98	0.2189163
164	0x3e0531ab	0.13007228
165	0x3e67fddd	0.22655435
166	0xbedcb5d5	-0.43107477
167	0xbf282b45	-0.65691024
168	0x3e72b022	0.23700002
169	0xbdc1c5da	-0.09461565
170	0x3e19437c	0.1496715
171	0xbda34c5c	-0.07973549
172	0x3e06c8cd	0.13162537
173	0x3ded57d0	0.115890145
174	0xbdbdf7a2	-0.09275748
175	0x3e1a13a5	0.15046556
176	0x3ebfac70	0.37436247
177	0x3ce27099	0.027641581
178	0x3e90d741	0.28289226
179	0xbcaeb7f5	-0.021327952
180	0x3d82cd50	0.063868165
181	0xbf421931	-0.7581969
182	0x3f305cb0	0.6889143
183	0xbd1acb4a	-0.037791528
184	0x3ea806f3	0.32817802
185	0xbe29a4d2	-0.1656678
186	0x3cc7e3b5	0.024400571
187	0xbb36e517	-0.0027907544
188	0xbce14ec4	-0.027503379
189	0x3e428b5b	0.18998472
190	0xbdc7996a	-0.09746058
191	0x3d4cfa0c	0.05004315
192	0x3ca63507	0.020288957
193	0x3ca52f60	0.020164192
194	0x3d8730bc	0.06601092
195	0x3f0638f7	0.5243067
196	0xbd18b1ed	-0.03727906
197	0x3e698503	0.22804646
198	0xbd394dc0	-0.045240164
199	0xbc9600ce	-0.01831093
200	0xbdbe7221	-0.09299112
201	0x3db39c6a	0.08770068
202	0x3d8aa38a	0.06769474
203	0xbddc1e42	-0.10747959
204	0x3ea8d569	0.3297532
205	0x3d6e71d0	0.05821401
206	0x3e08e5d5	0.13368924
207	0x3d5bec41	0.053692106
208	0x3e561fa8	0.20910513
209	0xbd5a456c	-0.053288862
210	0x3e124b39	0.14286508
211	0x3e6dad99	0.23210754
212	0x3e8ab3d3	0.2709032
213	0xbc7f0f15	-0.015567561
214	0xbedbdf2d	-0.42943707
215	0xbe4d0a8b	-0.20023553
216	0x3d0fc45e	0.03509938
217	0xbe0f2a48	-0.13980973
218	0x3e75d15b	0.24005644
219	0xbcd2fa7b	-0.025754204
220	0xbddc10ad	-0.10745368
221	0xbb836ba7	-0.004010636
222	0x3d3ec394	0.046573237
223	0x3db4f802	0.08836366
224	0xbd80d3c7	-0.06290393
225	0xbe2b8e66	-0.1675354
226	0xbece14d4	-0.40250266
227	0x3c44554d	0.011983228
228	0x3e255166	0.16144332
229	0xbc773062	-0.015087219
230	0xbe2229cd	-0.15836258
231	0x3ea95047	0.3306906
232	0xbd528bc2	-0.051402815
233	0xbee89616	-0.45427006
234	0x3e26f1f9	0.16303243
235	0x3e24dc05	0.16099556
236	0x3f114420	0.56744576
237	0xbdcbaf3e	-0.09945534
238	0x3bf6f01e	0.0075359484
239	0x3de57824	0.11204556
240	0xbd141944	-0.036156908
241	0xbf216bf1	-0.6305533
242	0x3e66f3b6	0.22553906
243	0xbeaafb24	-0.3339473
244	0x3f2125ea	0.6294848
245	0x3e182843	0.14859109
246	0xbcbea061	-0.023269834
247	0xbd56c2bb	-0.052431803
248	0x3cd3c4aa	0.025850613
249	0xbe06fdfb	-0.13182823
250	0x3e3accf7	0.1824225
251	0xbd9d3bf9	-0.076774545
252	0x3ea5c8ea	0.32379848
253	0xbdce96bd	-0.10087345
254	0x3dabc0c0	0.083863735
255	0xbc8a440c	-0.01687815

fc2.bias f4 [128]
0	0xbe919afe	-0.28438562
1	0xbece5599	-0.4029968
2	0x3f210b3c	0.6290777
3	0x3f2c8be6	0.6740097
4	0x3f2c0267	0.67191166
5	0xbef0b32f	-0.47011706
6	0xbee9f5a8	-0.45695233
7	0xbec8ad8d	-0.3919491
8	0xbef2530b	-0.47328982
9	0x3ef548bd	0.47907057
10	0x3f291058	0.66040564
11	0xbeef8dcb	-0.46787867
12	0x3f30c4f7	0.69050545
13	0x3df34015	0.11877457
14	0xbedddcfe	-0.43332666
15	0x3f1e34ee	0.61799514
16	0xbf08cb15	-0.5343488
17	0x3f3479cb	0.7049834
18	0x3f1ec5e1	0.6202069
19	0xbf0a0b57	-0.53923553
20	0xbee27a1d	-0.4423379
21	0x3ebd8d25	0.37021747
22	0xbef2a884	-0.47394192
23	0xbef4912e	-0.47767013
24	0x3f22fa4f	0.6366319
25	0x3f250943	0.6446726
26	0xbf0e3be7	-0.55560154
27	0xbed2d676	-0.41179246
28	0xbe9e2d08	-0.3089373
29	0xbf03fee5	-0.51560813
30	0xbf140881	-0.57825476
31	0x3f30f3b3	0.69121855
32	0xbef30f90	-0.4747281
33	0x3f36f186	0.71462286
34	0xbeb4eb45	-0.35335746
35	0x3f3159eb	0.6927783
36	0xbecd29a6	-0.40070838
37	0xbeed07fe	-0.4629516
38	0xbef388fd	-0.4756545
39	0xbf04171c	-0.5159776
40	0xbeb90905	-0.36139694
41	0x3f17efbd	0.59350187
42	0x3f1fef77	0.6247477
43	0xbef98e61	-0.4874144
44	0xbf0c64f8	-0.54841566
45	0xbef2a583	-0.473919
46	0xbf017697	-0.5057158
47	0xbee9b3b1	-0.45644906
48	0x3f2caca4	0.6745093
49	0xbeec30f0	-0.46131086
50	0xbf072c28	-0.5280175
51	0xbee5b3ca	-0.4486373
52	0x3f2bb24d	0.6706894
53	0x3f23db94	0.64006925
54	0x3f2dd3f8	0.67901564
55	0x3f2f186a	0.6839663
56	0xbeb48935	-0.3526093
57	0x3e2e09b7	0.16995893
58	0x3f3524f6	0.7075952
59	0x3eb2a746	0.34893245
60	0x3f272cca	0.6530272
61	0x3f17f4c4	0.5935786
62	0xbf059b4d	-0.52190095
63	0xbedded64	-0.43345177
64	0xbf0cc953	-0.54994696
65	0xbed83f1e	-0.42235655
66	0x3f31886b	0.6934878
67	0xbeca9c40	-0.39572334
68	0xbeeb5c82	-0.45969015
69	0xbeec65d9	-0.46171454
70	0x3f1e0695	0.61728793
71	0xbc08acac	-0.008341949
72	0x3f184472	0.5947944
73	0x3f27cd4b	0.6554763
74	0xbeddc73a	-0.4331606
75	0xbf0cdb69	-0.55022293
76	0x3f356c4a	0.7086836
77	0x3f36e019	0.71435696
78	0x3f261304	0.64872766
79	0x3f357b33	0.7089111
80	0xbea7b3fb	-0.32754502
81	0x3b25f3af	0.0025322249
82	0xbee5c756	-0.44878644
83	0xbf01912d	-0.50612146
84	0xbf089df3	-0.5336601
85	0xbef99acd	-0.48750916
86	0xbf05f498	-0.52326345
87	0xbedcf1d0	-0.43153238
88	0xbf046666	-0.5171875
89	0xbec87f7a	-0.39159757
90	0xbeba9925	-0.36444965
91	0x3f2a87ea	0.6661364
92	0xbf0957a6	-0.53649366
93	0x3f1dca90	0.6163721
94	0x3f30a421	0.6900044
95	0x3f346264	0.7046263
96	0x3f255ec4	0.64597726
97	0xbeed0e20	-0.4629984
98	0x3f2b24a6	0.66852796
99	0x3f049096	0.5178312
100	0x3f217ea4	0.63083863
101	0xbee71b95	-0.4513823
102	0x3ede4207	0.4340975
103	0x3f1efa3e	0.6210059
104	0x3de18bad	0.11012969
105	0xbba37ec0	-0.004989475
106	0x3f2529cd	0.6451691
107	0x3f3944ba	0.72370493
108	0x3f21a302	0.63139355
109	0x3f2fcda0	0.68673134
110	0xbedaa719	-0.4270561
111	0xbf070011	-0.52734476
112	0xbed51bcf	-0.4162278
113	0x3f155db1	0.58346087
114	0x3f110863	0.5665342
115	0x3ec3f7b8	0.38274932
116	0xbf0177e3	-0.5057356
117	0x3f22869d	0.63486654
118	0xbf0f801e	-0.56054866
119	0xbed2c323	-0.41164503
120	0x3f27bdd4	0.6552403
121	0xbedb66e9	-0.42851952
122	0x3f1f7847	0.62292904
123	0x3f294d69	0.66133744
124	0xbc9d2ad8	-0.019185469
125	0x3f2c1c37	0.6723055
126	0x3f2ada38	0.66739225
127	0xbeea67f7	-0.45782444

fc3.weight f4 [1, 128]
0	0xc007cbdb	-2.1218174
1	0xbe6117f1	-0.21981789
2	0x3db36863	0.087601446
3	0x3ec2a068	0.38013005
4	0x3e3d347a	0.1847705
5	0xbefc95b8	-0.49332976
6	0xbec81f3f	-0.3908634
7	0xbf10e631	-0.56601244
8	0xbe94a075	-0.2902867
9	0x3c94005f	0.018066583
10	0x3e2829e2	0.16422227
11	0xbe924aef	-0.28572795
12	0x3eaa24cd	0.33231202
13	0xbc121068	-0.008915044
14	0xbeaba121	-0.3352137
15	0x3e740eb9	0.23833741
16	0xbebed90b	-0.37274966
17	0x3e42751c	0.18989986
18	0x3d87d9ee	0.06633364
19	0xbcaa9dc6	-0.020827185
20	0xbe8a7a89	-0.27046612
21	0x3c8c961e	0.017161425
22	0xbf21b7a6	-0.6317085
23	0xbf0ab28f	-0.5417871
24	0x3e74fe4a	0.23925129
25	0x3e78a2e9	0.24280895
26	0xbe27ec39	-0.16398706
27	0xbed004a4	-0.4062854
28	0xc0018619	-2.0238097
29	0xbec17f1b	-0.37792286
30	0xbe20fdcf	-0.1572182
31	0x3eb6103e	0.35559267
32	0xbee7986e	-0.45233482
33	0x3ebb8f8f	0.36632964
34	0xbf026c2f	-0.50946325
35	0x3e80f2e9	0.25185326
36	0xbebb6eb5	-0.366079
37	0xbee0f95f	-0.43940255
38	0xbe7f6cb4	-0.2494381
39	0xbef32c1b	-0.47494587
40	0xbf14a499	-0.58063656
41	0x3dd8422e	0.10559498
42	0x3e7a264e	0.24428675
43	0xbeecd788	-0.46258187
44	0xbc54079e	-0.012941269
45	0xbf03a86d	-0.5142887
46	0xbf0b81ac	-0.5449474
47	0xbf189aa8	-0.59610987
48	0x3ebb1822	0.3654185
49	0xbbe69948	-0.0070373155
50	0xbd408e2d	-0.04701059
51	0xbec31ab2	-0.38106304
52	0x3e9e3fef	0.30908152
53	0x3db68262	0.08911587
54	0x3e27926f	0.16364454
55	0x3e464853	0.19363527
56	0xbf0e0d75	-0.55489284
57	0x3d22cbf8	0.0397453
58	0x3e4a74da	0.19771138
59	0xb712c9c4	-8.749255e-06
60	0x3ea112dc	0.314597
61	0x3dc9c5a0	0.09852147
62	0xbf067f57	-0.52538055
63	0xbee74b1d	-0.45174494
64	0xbf03f666	-0.5154785
65	0xbedfa574	-0.43680918
66	0x3df2e6cd	0.11860428
67	0xbefe0603	-0.49613962
68	0xbe1d9503	-0.15388875
69	0x3b3b018b	0.0028534855
70	0x3e481f87	0.19543277
71	0x3d81e511	0.06342519
72	0x3df0f537	0.11765521
73	0x3e7b7bee	0.24558994
74	0xbef69a2d	-0.48164502
75	0xbe5d708a	-0.21624961
76	0x3e9b79cc	0.3036636
77	0x3ea6c7b5	0.3257424
78	0x3e796522	0.24354985
79	0x3ebd2b11	0.3694692
80	0xbff3f949	-1.9060451
81	0x3d21e10d	0.039521266
82	0xbe817a6c	-0.25288713
83	0xbf109506	-0.5647739
84	0xbe816e16	-0.252793
85	0xbf08afec	-0.53393435
86	0xbeee5a43	-0.4655324
87	0xbf257b0b	-0.64640874
88	0xbf276b13	-0.6539776
89	0xbefb2261	-0.49049667
90	0xbf0473f5	-0.51739436
91	0x3e9a9264	0.30189812
92	0xbd4b400b	-0.049621623
93	0x3da51cfe	0.080621704
94	0x3e9a5bf8	0.30148292
95	0x3e7682e3	0.24073367
96	0x3e46936d	0.19392176
97	0xbf13a43f	-0.57672495
98	0x3e0c8c4c	0.13725394
99	0x3daca71a	0.084303096
100	0x3e5d2424	0.21595818
101	0xbf1e523f	-0.6184425
102	0x3d5a067f	0.05322885
103	0x3e0e0d7f	0.13872336
104	0xb9828df4	-0.00024901296
105	0xbdd2406d	-0.102661945
106	0x3e5003e3	0.20313983
107	0x3eea8bc4	0.45809758
108	0x3dc2ab50	0.095053315
109	0x3e3fe6f4	0.18740445
110	0xbeb27b36	-0.34859627
111	0xbd173784	-0.03691818
112	0xbf036e5a	-0.5134026
113	0x3da4a2a7	0.08038836
114	0x3d3fbf34	0.046813205
115	0x3cfd4e8f	0.030921249
116	0xbeed6a9c	-0.463704
117	0x3e1fb35c	0.15595764
118	0xbf22e065	-0.6362365
119	0xbeff03b0	-0.498075
120	0x3e9a50a6	0.30139655
121	0xbea2c71e	-0.3179254
122	0x3e2733be	0.16328332
123	0x3e82e104	0.25562298
124	0xbde465ae	-0.11152206
125	0x3e61a48d	0.22035427
126	0x3e02ec3b	0.12785427
127	0x3b24762a	0.0025094845
